HousePrice.pt (torch, 42923 bytes, 21 tensors)

weight f4 [15, 8]
00000000: d0dc 32bd d42b 373d 567d 92bc 9f3a 31bd
00000010: 5a1b d53c 2936 1d3d b38f fe3c 28d2 babd
00000020: b53d 883f 9bd0 0ebe 8932 22bc 24f1 91be
00000030: 9f27 2b3d 5f6c 763e 3753 4dbc f9f4 dd3d
00000040: f429 1bc0 5477 96bf ddc8 4bbf e17f 463f
00000050: fb95 8ebe bcc5 41bf 2c69 263f 5989 c9be
00000060: 5a57 61bf b169 96bf 53b0 2dbf dceb 883d
00000070: 1228 5cbd 2abc e8be 6525 973e 82d9 80bf
00000080: 26e7 92bf 49c3 9a3f fa50 44bf 5a34 50be
00000090: e593 50bb c413 e93b fcc8 253f a756 42bf
000000a0: 0e34 923d de14 5dbd 6951 4abd d8a4 0e3c
000000b0: ec4c 523d 59df d73b df05 2c3c 4af8 b3bc
000000c0: bcbd 58bf 2c54 3f3d 3638 bf3d a176 0e40
000000d0: 5e5d e0bd 8c0c 0cbe c03a e5bf 21e9 363d
000000e0: 5935 ac3e af5b b4be c719 933e 8f47 3abf
000000f0: eb51 debe 9dff edbe fca2 b2be b21d 983e
00000100: 9d00 a73e e8ed c23c 936c f4bc dcf8 c43e
00000110: 5c15 36bd aac3 56bb 9af2 c33d 482f 6d3d
00000120: 9111 1a3f ff60 8f3e 1028 fcbc 3f19 9b3e
00000130: 07b1 e9be f049 bebe 5359 453d 115d 43be
00000140: 2d28 ad3f 40e3 1640 4991 73c0 e164 ecbe
00000150: 24e5 2d3f 3fc9 383f a569 a83f b9ea 85c0
00000160: be6e 3c3d 3e88 6abe 37e9 943d 18c1 013e
00000170: 4fb2 2abf f5c8 29bf b262 25be b2ea bf3d
00000180: ccf9 40be abab 8e3f a5fb 17bf 7ef3 8a3a
00000190: 562c 14bd db7a 4b3e 65de 073f 494b 1cbf
000001a0: a1e4 c9be f781 88be 87e5 cebe 28e2 fdbe
000001b0: fef5 f83d 63d0 db3e cf6c 5e3d fc69 f0bc
000001c0: f2c8 17bd 434e 323f afc6 1bc0 d269 ab3e
000001d0: 2dcf bc3e 8483 d03e 98eb 503e f976 1fc0
-0.043667614 0.044719532 -0.01788203 -0.043268796 0.026014019 0.03838173 0.03107438 -0.091221154
1.0643831 -0.13946764 -0.009899744 -0.28504288 0.041785832 0.24064778 -0.012532047 0.108377405
-2.4244356 -1.1755166 -0.7960337 0.7753888 -0.278488 -0.75692344 0.6500423 -0.393626
-0.8802391 -1.1751004 -0.67847174 0.066856116 -0.05374915 -0.45456058 0.29520717 -1.0066378
-1.1476791 1.2090846 -0.7668606 -0.2033247 -0.0031826433 0.007112952 0.647598 -0.7591347
0.07138835 -0.05397498 -0.049394045 0.008706294 0.05134289 0.0065879044 0.010499447 -0.02196898
-0.8466451 0.046711132 0.09336893 2.2259905 -0.109553084 -0.13676661 -1.7908554 0.044655923
0.3363445 -0.352262 0.28730604 -0.7276544 -0.43421873 -0.4648408 -0.34889972 0.29710156
0.32617655 0.023795083 -0.029836928 0.38471115 -0.044453964 -0.0032770433 0.09567757 0.05790642
0.60183054 0.2800369 -0.030780822 0.302927 -0.45642874 -0.37165785 0.04818089 -0.19078471
1.3527886 2.3576202 -3.8057425 -0.46170714 0.67927766 0.7218208 1.315724 -4.1849027
0.04600405 -0.22903535 0.07271045 0.12671316 -0.6667833 -0.6632226 -0.1615093 0.093709365
-0.1884529 1.1146139 -0.59368354 0.0010601131 -0.036175095 0.19871084 0.5307372 -0.61052376
-0.39432243 -0.26661655 -0.4040949 -0.49586606 0.12156294 0.42932424 0.054302987 -0.029347412
-0.03705687 0.6965067 -2.4340017 0.33479172 0.36876813 0.40725338 0.20402372 -2.4916365

weight f4 [5, 3]
00000000: 4246 1440 cf2a c43f 2b7c 8c3f 4d7c cabe
00000010: b087 39bf f7a8 10bd a3d4 87bd 1789 583e
00000020: 5521 393f 3dea 62bd c180 c7bc 7b5a 1c3d
00000030: 0f9f c13e 3420 0e3e 0e0e 44bf
2.3167882 1.5325564 1.0975393 -0.3954796 -0.7247267 -0.035317387 -0.06632354 0.21146046
0.72316486 -0.05539917 -0.024353387 0.038172226 0.37816665 0.13879472 -0.76583946

weight f4 [2, 1]
00000000: 0e82 fb3f d659 ea3c
1.9649065 0.02860729

weight f4 [4, 2]
00000000: e49c 523e 1723 6fbe 0dc0 953e 949f e0be
00000010: 7eec 31c0 8ca1 01be 138f 78be cae8 973e
0.20567662 -0.2335323 0.29248086 -0.43871748 -2.7800593 -0.12659281 -0.24273328 0.2966979

weight f4 [5]
00000000: 4efe 1c3f 65e2 083f a79f 9e3f e3df 763f
00000010: 0915 0140
0.6132554 0.5347045 1.2392472 0.96435374 2.016909

bias f4 [5]
00000000: 44b5 94bd 968b 23bf 6698 eabf 580f 20bf
00000010: 0355 0940
-0.07261136 -0.63884866 -1.8327758 -0.6252341 2.1458137

running_mean f4 [5]
00000000: 6229 8c42 8de7 1b46 c0c2 9044 25cb ab43
00000010: 5482 5142
70.080826 9977.888 1158.0859 343.58707 52.377274

running_var f4 [5]
00000000: 10f6 1044 0452 774c e328 0f48 9371 3848
00000010: 9a63 7a44
579.8447 6.483355e+07 146595.55 188870.3 1001.5563

weight f4 [100, 19]
00000000: 42f9 0e3f 72fc 34bf 9126 613f 4375 0e40
00000010: 5963 4f3e dda0 3b3e 843d 113e 60ee 513f
00000020: 498d 12bf 51fe 28bd bc0a 2f3e a710 123f
00000030: 5cc6 c53c 2168 8b3e fd9a 9ebf 8bb2 8d3f
00000040: 4d48 823f 49e2 173f 0aaf ecbf 6dff bd3e
00000050: f4b8 6abe 7178 cdbe 6e3a 96bc c8ca 243f
00000060: 20d2 b33e b58b afbe a510 23be 1097 0540
00000070: ff3d e03f b2a7 afbf 5230 8fbe f014 63be
00000080: 587c e03e c0d0 94bc 34a5 84bf e067 e5bf
00000090: 812e 27c0 eae8 853d 602e 37be ced0 febc
000000a0: 7425 fabe 24cc 9f3d 02ad b9bf 2c1c 8bbf
000000b0: 0e9e 8abe a0c2 493e 464b b2bf c593 2cbf
000000c0: 5d69 ae3f 34d0 513d 1365 263f f354 41be
000000d0: 4b6f 2540 f8c1 0f3f 1ed6 cdbf 562a c1bf
000000e0: 2d43 123f fee4 053f 4a3b 25be 0051 ebbe
000000f0: d0db 53be b37c 8e3f edbc 3a3f ae3d 02bf
00000100: 7857 bdbc 539e 0c40 0eb3 d13f 2cf1 a9bf
00000110: 6f71 c2be 2e4f 3fbe 1364 25be aef3 21be
00000120: 0b13 97bf 087a ecbf 271e 21c0 7fff 233e
00000130: dacc 1f3f 7e03 1f3e e435 17bf 5059 b8be
00000140: 69d7 093f 6406 793f b654 653f 0a6e 5fbd
00000150: a44a 353f 22c7 903f 6cc3 6b3e 7092 c53e
00000160: 2395 28bf 0b81 893f a582 0a3e 6f40 73c0
00000170: 09c0 79bf a64c 86bf afdf 783f 22b8 dabd
00000180: 8c5d 4ebb 78a1 703d 02f2 193e db74 e8bd
00000190: 48e0 38bd 6200 42bd a212 af3c 2285 53be
000001a0: a95d 77be aea1 cdbc f4af 84bd 8589 03be
000001b0: 7d84 b53c 600a a9bf c9ce 45c0 1ee1 753f
000001c0: f560 733f 58c7 1cc0 5304 91bd d46b e4be
000001d0: 5c7c 83bf de20 f13e 6c3f 47bf cea9 85bf
000001e0: 4420 3ebf d2a5 c83f fe6e 11bf b391 833e
000001f0: 13f6 883f 6719 c93e 0d02 7f3f 9d23 02bf
00000200: 3b2d 0d40 573e 143f 9e49 edbf a9cb c7bf
00000210: df5d 963e d8c7 3e3f 8813 05be 169b 583e
00000220: eeb0 c13e 3edd 8abe 47a6 a13f 10a3 02bf
00000230: 8ab8 103f cbf9 be3e 95df 563f 7675 8cbe
00000240: 5c93 183f 4c6d 93be e398 8a3e 9670 143f
00000250: 2e56 53bf 14ad 653f 76b6 5f3f 1750 28c0
00000260: 95c5 983e b6b7 ea3e ff0c 45bf 7bd0 573d
00000270: e456 e13e 9cb3 983f 2b1b 3a3f 0187 67bf
00000280: eefd 6d3e 155e ff3d 7cf1 22be f345 4a3e
00000290: def4 3fbf f31b 783f 23d9 f3bd 87bb 353e
000002a0: 6510 95bf 1384 b0bf 5916 443f ed09 d33e
000002b0: 034d cabe 92da 6c3f 2178 0140 1863 833e
000002c0: ec87 473e 8cce 243e eae8 2d3f 4769 93bd
000002d0: 3024 8abe 2eaf 5d3e 28da de3d 8685 78bc
000002e0: a626 0a3e c2d0 95bf 4910 973f c32f 693f
000002f0: 58fe 0e3f 8dd8 cdbf 3af0 e9bd cf23 ad3e
00000300: b359 b7be 3652 933e dc3d e73e f082 0b3f
00000310: b831 95be cdf2 4fbf 73e4 963f e6f0 2c3f
00000320: 3683 6dbe b1ea b6be 2c4b 483f 293d 8c3e
00000330: ac3e 8b3f 2604 343f d108 04c0 f2ab 35c0
00000340: 4ed1 ed3e 8bb9 423f a133 7d3e b45f 68bf
00000350: e133 2a3e d8fc 123e 3338 b23f 7cb1 463f
00000360: 1f93 7abf 4727 163f 4fa3 3d3f b54e 30be
00000370: ecc7 1e3f f3ac 53bf 8379 7a3f 96fd 42be
00000380: 5a5d 9dbf 33dc 61bf fcf2 bbbf afd6 5a3f
00000390: 99b2 563e 00ad 1e3d 7078 e3bd 8c12 363d
000003a0: 2bec d33e 741b 4b3e c8af a83d 1166 b0bd
000003b0: 2b09 463f 524e 7f3f 7b7a 2bbf aaa5 a33f
000003c0: d622 63bd d2c7 a5bd 571e 24bd 50ca 8cbf
000003d0: 6b42 c9bf efcb c2bf add5 193f 9594 713d
000003e0: db7f 613d 63e2 aebe a8a6 c4be 31d3 9a3e
000003f0: dba4 8abe 3918 babe 2d93 dd3d 94fa 0b3f
0.5584909 -0.706977 0.8794947 2.225907 0.20252742 0.18323083 0.14183623 0.82004356
-0.57246834 -0.04125816 0.17093939 0.5705666 0.024142437 0.27227882 -1.2391049 1.1070112
1.0178314 0.5932966 -1.8490918 0.37108937 -0.22922117 -0.40130952 -0.018338408 0.6437192
0.3512125 -0.34286276 -0.15924318 2.0873451 1.751892 -1.3723052 -0.27966553 -0.22175956
0.43844867 -0.018165946 -1.0362916 -1.7922325 -2.6122134 0.065385655 -0.17888784 -0.031105425
-0.488567 0.078026086 -1.4505923 -1.0867972 -0.2707371 0.1970315 -1.3929222 -0.6741298
1.3625904 0.05122395 0.64997977 -0.18880062 2.5849178 0.5615535 -1.6080968 -1.5091045
0.5713375 0.5230254 -0.16135898 -0.45960236 -0.2068932 1.1131805 0.7294453 -0.50875366
-0.023112997 2.1971633 1.6382768 -1.3276725 -0.37977168 -0.18682548 -0.16151457 -0.15815613
-1.1802686 -1.8474741 -2.5174654 0.16015433 0.62421954 0.15528676 -0.59066606 -0.3600564
0.53844315 0.97275376 0.89582384 -0.0545483 0.7081702 1.131077 0.23023766 0.38588285
-0.65852565 1.0742506 0.135264 -3.8008077 -0.9755865 -1.0492141 0.97216314 -0.10679652
-0.0031488864 0.05874774 0.15033725 -0.113504134 -0.045135766 -0.047363646 0.02137119 -0.20656255
-0.24156822 -0.025101509 -0.06478873 -0.12845428 0.022157902 -1.3206291 -3.0907462 0.96046627
0.9506982 -2.449667 -0.07080903 -0.44613516 -1.0272326 0.47095388 -0.7783115 -1.0442445
-0.74267983 1.5675604 -0.56809986 0.25697097 1.0700096 0.39277193 0.99612504 -0.5083559
2.2058856 0.57907623 -1.8538091 -1.5609027 0.29368493 0.7452369 -0.12995732 0.2115291
0.378303 -0.2712192 1.2628869 -0.51030064 0.56531584 0.37299952 0.8393491 -0.27433366
0.5959985 -0.28794324 0.27069768 0.5798429 -0.82553375 0.8971722 0.8738779 -2.6298883
0.29838243 0.45843285 -0.76972955 0.052689057 0.44011605 1.1929812 0.72697705 -0.90440375
0.23241398 0.124691166 -0.15912431 0.19753246 -0.7498301 0.9691765 -0.1190665 0.17747317
-1.1645628 -1.3790306 0.765966 0.4121851 -0.3951188 0.9252101 2.022957 0.2566154
0.19485444 0.16094416 0.67933524 -0.071978144 -0.26980734 0.21648857 0.10881454 -0.015168553
0.13491306 -1.1704333 1.1801845 0.91088504 0.5585685 -1.6081711 -0.11422773 0.33816382
-0.35810623 0.2877366 0.45164382 0.5449667 -0.29139495 -0.8122986 1.1788467 0.6755508
-0.23194584 -0.3572593 0.78239703 0.27390411 1.0878501 0.7031883 -2.063038 -2.8386197
0.4644875 0.76064366 0.24726726 -0.9077103 0.16621353 0.14354265 1.3923401 0.7761457
-0.9788074 0.5865368 0.74077314 -0.17217524 0.62023807 -0.82685775 0.9784166 -0.19042048
-1.2294114 -0.8822662 -1.4683528 0.8548383 0.20966567 0.038739204 -0.11106956 0.04445128
0.4139112 0.19834691 0.082366526 -0.086132176 0.7735774 0.9972888 -0.66983765 1.2784932
-0.055453144 -0.08094753 -0.040067997 -1.0999241 -1.5723394 -1.5218486 0.6009167 0.05897959
0.055053573 -0.34157094 -0.384084 0.3023925 -0.270789 -0.36346605 0.10819087 0.54679227

bias f4 [100]
00000000: 4156 2a40 4b17 02bf 7888 3dc0 f272 efbe
00000010: 0758 9340 04ad 10c0 b80b 1ec0 7dbb d33f
00000020: 0c7e e440 264f 1e40 8daa e3bd a732 c740
00000030: 87cc f740 1aec 5a40 28ac 1cc0 e30d f040
00000040: 7ab3 543c 8371 0ec0 bd7d 6ebf 0e8f e5bf
00000050: df57 0440 183d 27c0 d3a2 75c0 e3fc 2fc0
00000060: e4a4 51bf ab49 0dc0 24df d6bf 4570 cd3e
00000070: be12 a13f ff5b 3bc0 175a a140 d5bc f1bf
00000080: 25e4 a0be 36bf d940 9b16 1940 1a8a 57c0
00000090: 263e 983f 50ce 873f 4fc4 fabf fccf ac40
000000a0: e947 0e40 51ac 9740 06e3 07c0 1948 c040
000000b0: 21e6 823e 7aa5 e5be 5025 9940 37b4 a040
000000c0: ff43 9840 2612 b640 141d 52c0 00e8 e4bf
000000d0: 7855 c4bf 78fa 96be 2e4a 9940 ffa5 38c0
000000e0: 315f aac0 4951 4b40 944a 9bbf f76e a3bf
000000f0: 3ab9 ab40 c50e 7740 73d4 aebf 9eff e9bf
00000100: 4b69 42c0 ba14 c340 e904 c13f 4243 1b40
00000110: 5bd3 4240 bbc8 3640 04d5 4740 cde0 a540
00000120: d8b7 d0bf 47ea aa40 da47 d5bf fbbb 4640
00000130: 1610 b140 b444 c1be 7f0c cabf 1b50 a33f
00000140: b42f eebf d582 85bf c8c9 eabf 9e70 4140
00000150: a5e6 31bf b2e9 9dbf b6c4 d53f 10ca d240
00000160: 2b10 9bbf aad1 a040 8aeb 8dc0 83fe f040
00000170: 823e 25c0 4f49 dfbf 18e8 f93d 6bc0 8ebf
00000180: e694 a240 bf35 4ac0 f606 39c0 b56b a540
2.6615145 -0.5081679 -2.9614544 -0.46767384 4.6044955 -2.26056 -2.4694653 1.6541592
7.1403866 2.4735808 -0.11116514 6.224933 7.7437167 3.4206605 -2.4480076 7.501695
0.012982244 -2.2256782 -0.9316061 -1.7934282 2.0678632 -2.6131039 -3.838063 -2.74981
-0.8189223 -2.2076213 -1.6786847 0.40124717 1.2583845 -2.92749 5.0422473 -1.8885752
-0.3142406 6.804591 2.3920047 -3.367804 1.1893966 1.0609837 -1.9591159 5.4003887
2.223139 4.7397847 -2.1232314 6.008801 0.255662 -0.4485281 4.7858047 5.021999
4.7583003 5.6897154 -3.2830248 -1.7883301 -1.5338583 -0.29487967 4.790305 -2.8851316
-5.32412 3.1768363 -1.2132134 -1.2768239 5.3663607 3.8602765 -1.3658584 -1.8281133
-3.0376766 6.09628 1.5079623 2.42598 3.04415 2.8560016 3.1223764 5.1836915
-1.6306105 5.3410983 -1.6662552 3.1052234 5.5332136 -0.3774773 -1.5785064 1.2758821
-1.8608308 -1.0430552 -1.8342829 3.0224986 -0.6949256 -1.2336943 1.6700656 6.587166
-1.2114309 5.0255938 -4.4350023 7.5310683 -2.5819402 -1.7444247 0.122024715 -1.1152471
5.080676 -3.1595304 -2.8910499 5.169398

weight f4 [100]
00000000: b9f8 ab3e 33cc 9d3e 949e 253f 7310 7d3e
00000010: 9612 583e 6dce d83e 7e63 103f e94b c63e
00000020: 16bf 703e 3b08 9d3e d768 94be 7747 5e3e
00000030: f135 a73e 34ad 943e 84f0 0c3f 8de3 923e
00000040: 2849 7bbe 5ff1 d6be 0b18 e23e 7fdd a93f
00000050: 5509 703e 296a a23f 5145 0b3f d407 d33e
00000060: e729 9d3e fff5 063f 7922 033e 85b1 0b3f
00000070: 9e99 cd3e 1b65 2d3f 62e0 633e 3e31 56bf
00000080: 747f 7b3e 44ca 9f3e b274 c93e 64ba a83e
00000090: 32dd 903e e374 38bf b18b 653f 1eee 6d3e
000000a0: 303f 703e 45fd 913e 6c4d da3f d042 76be
000000b0: 6673 223f cc72 943e 7bd0 9c3e a136 873e
000000c0: c33c 863e dae4 8f3e d822 d83f 1429 af3e
000000d0: dfdc bfbd 700f b53e 62d7 953e 11ba a03e
000000e0: 3ac2 963e 4f84 8d3e cd8d 3d3e 2ace 21bf
000000f0: 7dbe 7fbe 976f 8a3e 0671 0d3f fb08 1cbf
00000100: 272c 233d fd49 553e 8e80 823e 4e7f 8b3e
00000110: d35a 873e 3869 5d3e 4ac9 5e3e f8da 7a3e
00000120: 9ad6 803f 5147 823e f176 883f ea9d 983e
00000130: 3b79 7c3e 8f00 b23e 668f f53e 012f 993e
00000140: cf51 173f e734 693f 57b8 69be 8e3c 783e
00000150: bad4 013f 77c3 dc3f e322 ab3e d092 bd3e
00000160: 8be3 253f c95c 613e 4fff abbe afc2 7e3e
00000170: c327 833e 4632 553f 384d 843e cd28 7f3e
00000180: 37cb 873e 113f 9ebf 11b0 d1be 7526 7c3e
0.33588198 0.30819854 0.64695096 0.24713306 0.2110084 0.4234499 0.56401813 0.3872979
0.23510394 0.30670342 -0.28986236 0.21706949 0.32658342 0.29038393 0.550545 0.28689232
-0.24539626 -0.41981027 0.44158968 1.327072 0.2344106 1.2688648 0.54402643 0.4121691
0.3069603 0.5271911 0.12806119 0.5456775 0.40156263 0.677324 0.22253564 -0.8366889
0.24560338 0.31209004 0.39346844 0.32954705 0.2829376 -0.72053355 0.8966628 0.23235366
0.23461604 0.28513542 1.7054877 -0.24048924 0.63457334 0.28993833 0.30627808 0.26408866
0.26218233 0.28104287 1.6885633 0.34211028 -0.093683 0.3536334 0.29265887 0.31391957
0.29445058 0.27640006 0.18511124 -0.63205206 -0.2497501 0.2703826 0.55250585 -0.60951203
0.03983703 0.20829006 0.25488704 0.27245563 0.2643648 0.21622169 0.21756473 0.24497592
1.0065491 0.25445035 1.0661298 0.2980798 0.24655621 0.3476605 0.47960967 0.29918674
0.59109205 0.9109635 -0.22824226 0.2424185 0.5071522 1.7247151 0.33425054 0.37026072
0.6480033 0.22008051 -0.33593222 0.24878953 0.25616273 0.83279836 0.25840163 0.24917908
0.26522228 -1.2362996 -0.4095464 0.24624045

bias f4 [100]
00000000: fa6c 303d a219 f23d a80a db3e d9d0 283d
00000010: af64 6b3e 7f5d a03b cc0c c73e 7424 6d3d
00000020: 1df1 243e 717f 373d f94a 87be 5db4 4a3e
00000030: 1d58 54bd 821e eebd 6d92 cf3e 1eb7 f0ba
00000040: c2e1 ba3c f416 a83d 74b0 a23e 05d4 963c
00000050: 47f3 27bc 639b ac3c cc63 293d 7d61 d93d
00000060: 537b 9a3e 9c94 ebbc 4150 e8bd d6ec 863d
00000070: 9108 c43c 3b6e 7a3e 7d73 bc3c f8e7 afbd
00000080: 6983 4cbd e205 b2ba 6934 943b 9592 ca3d
00000090: c8d5 07bc 5b30 86be 28cd 713d 6998 403e
000000a0: 4352 b83c 6405 253e 1254 6dbc c581 efbd
000000b0: ffb6 a63d dac7 31bd 9214 653e 34e0 7b3d
000000c0: d91f a03d 59d3 113e cc07 fa3b 0af9 093d
000000d0: 0739 6bbd b786 9f3e 820c 333e 015e 023d
000000e0: 5ec1 aebc 1f6a e4bc 20a1 07bb 4b5f 8bbd
000000f0: 14a0 05bc af82 64bd cb9c 603d 21e2 b5bd
00000100: dc86 c7bd 3cd1 c83d fe89 c0bc 7e81 d5bc
00000110: 353f 77bd 68db 2dbc b19b dbbd da9f ee3d
00000120: 0373 b73b 617c ff3d e90e 773d 4ab0 0dbe
00000130: 15e7 b73b 7a10 0d3e 6163 aa3d 1a87 493d
00000140: a834 b1bd 30ea ed3d 1395 d93d 225e 28be
00000150: 77e6 193f be48 d93d edd9 353d 575e 453e
00000160: c857 073e d300 043e 9c6f 563c f02d 183d
00000170: ad7a 973c 450a 3e3d ee0a 9b3e 77c0 03bd
00000180: 6d9c 933d 057c 0a3c 0750 9e3c 5aba 893d
0.04307268 0.11821295 0.42781568 0.041214798 0.22987626 0.004893958 0.3887695 0.057896093
0.16107602 0.044799272 -0.26424387 0.19795366 -0.051841844 -0.11626913 0.40541402 -0.001836512
0.022812728 0.08207503 0.31775248 0.018411646 -0.010250873 0.021070188 0.04135494 0.106142975
0.30172214 -0.028757386 -0.11343432 0.065881416 0.023929866 0.24456112 0.023004288 -0.085891664
-0.04993001 -0.0013582075 0.0045228493 0.098912396 -0.0082907155 -0.26208767 0.059033543 0.1880814
0.022500163 0.16115338 -0.014485376 -0.116946734 0.081403725 -0.043403484 0.22371128 0.061493114
0.078185745 0.14240779 0.007630324 0.033684768 -0.057427432 0.31157467 0.1748524 0.03182793
-0.021332439 -0.027882634 -0.0020695403 -0.06805285 -0.008155841 -0.055788692 0.05483703 -0.08881021
-0.09742519 0.09805533 -0.0235033 -0.026062723 -0.060363013 -0.010611393 -0.10723055 0.11651583
0.0055984273 0.12474895 0.060316954 -0.1383678 0.005612264 0.13775817 0.08319736 0.04920111
-0.086526215 0.11616933 0.10624137 -0.16442159 0.60117286 0.106095776 0.044397283 0.19274269
0.1321708 0.1289094 0.013088133 0.037153184 0.018491114 0.046396513 0.30281776 -0.03216597
0.0720757 0.00845242 0.01932527 0.06724997

running_mean f4 [100]
00000000: a8cc 863e 2ec7 b540 5476 ed3f 8ec8 bf40
00000010: 5b53 4041 f4a3 053c dd1f ed3f 29b8 873e
00000020: 06dc 4a41 4409 713e bb8e d140 4707 4641
00000030: a53f 5b41 a191 2e41 1a05 1340 d21f 4e41
00000040: 0b58 ab3e 0400 0000 1eea 8840 d974 4b3b
00000050: 1474 3f3e 2709 903b de83 ce3c beeb ab3e
00000060: 8fcb ae40 0400 0000 0400 0000 a69a f73d
00000070: ddc8 4c3e bf13 223f 1f07 4641 03f2 083d
00000080: 4f6e e840 9340 4341 962c 513e 4d6e 383e
00000090: 7e6b 2f3e edbd 0f40 7c0c af3c 3ca9 3e41
000000a0: b482 6e3e 9ff0 3f41 da69 f13a 5980 4541
000000b0: bb40 053e 9976 a640 9ac2 4b41 37a4 4141
000000c0: e8bb 3e41 4705 4141 1ab0 673b 2588 413d
000000d0: 0400 0000 d699 c940 6ff8 4141 53c8 f33d
000000e0: 39df 003d 1c7d 1e3f 5905 af40 0d17 363e
000000f0: 3c77 5041 bbad 843f 0eb1 113d b58a fd3c
00000100: 0400 0000 f02a 4541 cbf1 8f3e 887f 1a3f
00000110: 91f9 313f 61bf 2941 5f7a 313f 8d49 4641
00000120: 0400 0000 b171 4841 0400 0000 bf35 403f
00000130: 6454 4741 d2c7 a540 d62e ac3b 6c0f 693e
00000140: 0400 0000 e381 2a3d 0400 0000 fa7b 443f
00000150: 808f a940 99b5 303c f041 a63e a21b 4e41
00000160: 8c48 ce3e 5adf 3d41 19b3 853b fd4c 5541
00000170: 2159 063f 6192 ce3c b56d c740 f16b 9f40
00000180: 8651 4041 cd96 6f3a 37b5 a72b 3e97 4341
0.26328015 5.680564 1.8551736 5.993232 12.02035 0.008156765 1.8525349 0.2650769
12.678717 0.23538691 6.548673 12.376777 13.703038 10.910554 2.2971864 12.882769
0.3346561 6e-45 4.2785788 0.0031044988 0.18696624 0.0043956223 0.025209364 0.33578295
5.4623485 6e-45 6e-45 0.12090044 0.19998498 0.6331138 12.376739 0.033433925
7.2634654 12.203265 0.20427164 0.18010826 0.17130849 2.2459671 0.021368258 11.916317
0.23292047 11.996245 0.0018418387 12.343835 0.13012974 5.2019773 12.73501 12.1025915
11.920876 12.063788 0.0035352767 0.04724898 6e-45 6.300029 12.123153 0.11903443
0.03146288 0.6190965 5.469403 0.1778223 13.02911 1.0365518 0.035569243 0.03094993
6e-45 12.322983 0.2811416 0.6035085 0.69521433 10.609223 0.6932735 12.392957
6e-45 12.527757 6e-45 0.7508201 12.458103 5.180642 0.0052546067 0.22759789
6e-45 0.041627776 6e-45 0.76751673 5.298767 0.010785484 0.3247218 12.881746
0.40289724 11.867029 0.004080188 13.331296 0.5247975 0.025216283 6.232142 4.9819264
12.019903 0.00091395975 1.1916361e-12 12.224424

running_var f4 [100]
00000000: 8407 1e3f 53ff 3341 a515 7140 f1bb 4641
00000010: 041a 7941 a536 853b b4da 6f40 0f5a 153f
00000020: 9e9a 7941 1896 0d3f dcc8 5141 f52d 9141
00000030: 768f 2941 5624 6141 7847 9440 a728 0c41
00000040: e2c7 8c3f 0400 0000 2a93 0941 0212 2c3c
00000050: 3e72 453f c8ae 983c 20c1 c83d ca67 1f3f
00000060: f085 4541 0400 0000 0400 0000 9936 3b3f
00000070: 8c27 9b3f d756 1040 8de1 4d41 6e88 413e
00000080: 9069 7441 312b 1941 0a9f 093f 1797 b93e
00000090: 6f06 133f 7d4f d640 177c c03d 6deb 4841
000000a0: 6826 543f d44d 6141 8ec9 1b3b 3824 7541
000000b0: 5dac 5c3f 1fb1 2d41 77e7 8841 3dce 4541
000000c0: 643d 8441 2c81 5b41 0ba3 1f3c b6a4 373d
000000d0: 0400 0000 19b5 4d41 3972 4e41 e6cf 3b3e
000000e0: 675f cf3c ac83 953f 33a7 6541 10a7 ab3e
000000f0: 7889 5141 e0dc f53f 292a 3d3e 80e6 4a3e
00000100: 0400 0000 33dd 6f41 c7a7 183f b532 9d3f
00000110: 7383 8b3f caa2 5f41 b075 923f 03b0 3e41
00000120: 0400 0000 08b5 3e41 0400 0000 9411 a03f
00000130: a268 3a41 1d13 5741 9f16 8d3b 76e7 ec3e
00000140: 0400 0000 cc3f 203e 0400 0000 3622 a53f
00000150: d82f 6241 6846 233d 05ef 4c3f b80a 4541
00000160: ba85 7c3f 46c2 6e41 a612 f63b 5452 3341
00000170: caf4 1d3f 9df3 e33d 9ce4 6c41 5d2f 3d41
00000180: 535e 4e41 1c12 833a 96e1 b42a a775 5e41
0.6173022 11.249835 3.766946 12.420884 15.568851 0.004065352 3.7477236 0.58340544
15.600248 0.5530715 13.111538 18.14744 10.597525 14.071371 4.633724 8.759925
1.0998499 6e-45 8.598429 0.01050234 0.77127445 0.01863803 0.09802461 0.62267745
12.3452 6e-45 6e-45 0.73130184 1.2121444 2.2553003 12.867566 0.188997
15.275772 9.573045 0.537583 0.36248085 0.5743169 6.697203 0.09398668 12.557477
0.82871103 14.081501 0.002377126 15.321342 0.86200505 10.855742 17.11302 12.362851
16.529976 13.719036 0.009743462 0.044834815 6e-45 12.856713 12.902886 0.18341026
0.025314046 1.1680808 14.35332 0.33525896 13.096062 1.9208031 0.18473114 0.19814491
6e-45 14.991504 0.5963101 1.22811 1.089949 13.977243 1.1442165 11.917972
6e-45 11.919197 6e-45 1.2505364 11.650545 13.442166 0.004305675 0.4627034
6e-45 0.15649337 6e-45 1.2901065 14.136681 0.039862067 0.80052215 12.315117
0.9864155 14.92243 0.0075095473 11.2076 0.61701643 0.1113045 14.805813 11.824063
12.898028 0.0009999904 3.2130955e-13 13.903724

weight f4 [50, 100]
00000000: f509 73bf 7d7c cd3e 3824 043e 9470 c03e
00000010: c928 293e 9a25 6f3f e134 24bf ea16 a1bf
00000020: 1c4a 46be 584f 1dbf 5d39 9bbe 62c7 8c3e
00000030: e8bd 013f 9249 2e3f 3c4f dabd ce0a 3a3f
00000040: a15a f73d 5130 0a3c a1b7 f5bd aad5 9f3f
00000050: 4ee8 6dbf a8f7 96bf fe16 6e3f fc03 133f
00000060: 5517 203e ae13 30bd b7cd 323f 3226 aebf
00000070: 04fa a2bf 1f9c 26bd af73 663e c68a 783e
00000080: 49ff fb3e 98e7 49bc 3499 b5bf 167b 6a3c
00000090: 53fc 97bf cc3e 80be 9b74 babe 1717 623e
000000a0: 4540 8bbf 249b 883e 1645 ac3d 8b04 86be
000000b0: 283e a4bf c8ea 3b3f e84f 5fbe e8d2 c53e
000000c0: ff5a 97be 941d 9ebe c9db e53c 31ee 163e
000000d0: 622e c83e bc53 a2be 525b 263e 09ff 593e
000000e0: 67d7 7c3e c464 2dbf abb3 043f b63f f33d
000000f0: bdd2 57bd 5e5d 8bbd 33ba a2be d24d acbe
00000100: ea91 2bbf 56d5 793d 8931 dcbf e7bb 92bf
00000110: 6a7d 85bf 3eca 14be 300f 34bf 413e 393c
00000120: b482 b03e fb39 d13e 32c2 cabd d0a2 28be
00000130: 7832 763f f1df be3e 4555 8fbe 9542 44bf
00000140: 17d1 313e 7cf1 ec3e 8e13 97bd 72da e3be
00000150: d9a1 26bf 534f 0fbf 1b25 a8bf 4320 0d3f
00000160: 1ce8 093f 063e 74be 346f 993e 89b3 853e
00000170: 6397 273e f987 bebe 573e cd3e 8d48 063f
00000180: cf35 123e 588e f2be 0dea 5fbe ba05 383e
00000190: 32df fd3e 4602 d2bf 5632 07c0 24be 14bf
000001a0: c6e6 02bf 0378 17c0 a595 42c0 df59 58be
000001b0: 6d9c babe d39e 453e fd2d 393f 72b4 58bf
000001c0: 8fde b33f 1371 0b3f a96c 43c0 b3d7 583e
000001d0: 4333 8dbf a1d2 7cbf e792 e9bf 9a3e 94bf
000001e0: 4d7d 8b3f 32df a8bf 49b3 423e bb36 abbf
000001f0: 197a 38c0 0855 af3f a5ff 783f f26e 9c3e
00000200: e8bb 903e 0900 78bf 61ce 093f fc25 51bd
00000210: 914c 8e3f b133 d03e 1e4f dcbe a0e7 883e
00000220: 12f2 123e 847c 8740 ae89 343f fe9a 21bf
00000230: 8900 663f 94bd e13e e58d 90bf a95f 9c3e
00000240: 59b6 a6be 0ff0 3b3e 4b0e d5be e64a 683e
00000250: 2d42 fabd 5963 74bf aaf8 bcbf 001d fa3d
00000260: 23b7 a03f 1309 01c0 28ee 59bf b3b3 a6be
00000270: 0fe7 ac3f 7837 a7bd 380b f33e feae f43f
00000280: 12c9 df3b 1589 3cbf 1771 cc3e 835f 80bf
00000290: b514 9abe 5c98 cdbe f08a 073e 73b9 6f3e
000002a0: 902f 9d3e dfa7 4d3f 9af9 3abf 5796 17bf
000002b0: 8fe7 403f eec9 8cbf 40f6 4a3f acd0 d9be
000002c0: 3b10 0b3f f81c abbf 00ad 12be 279b 10bf
000002d0: 5a04 8e3f 268c 133e a245 eb3d d8a7 f2be
000002e0: c3a6 88c0 85ca febe 694e 7e3e 3f18 d8bf
000002f0: dae9 49c0 1d8c 21bf cd6f 93bf 50c3 353f
00000300: cc00 83bf 2e20 283f aad7 83bf cdcb 18bf
00000310: 71ee c6be 9da3 cd3f bd55 31bf 3c94 1abe
00000320: 998a a0bf 9616 4e3f f83c 2b3f a6d9 ed3e
00000330: 90bc 183f 7a39 023f 043e 3a3d 66ca b3bf
00000340: 3f0f 453f 0503 90bf c40a 06bd fc17 2f3f
00000350: 6ddc 743f aae7 453f f00b ca3e 3c30 873f
00000360: 6792 3d3f fe1d 43be c2bf 5d3f 37ab 223e
00000370: ce30 5bbf c8a9 4c3d c5c7 d33e 9baa 993e
00000380: b4b0 fd3e 980d 943e dc0b d53e 8c15 be3c
00000390: e97e 0cbf 4cfe 593e 3be7 123f 6820 c2be
000003a0: 6108 193f 3311 923f 2a58 b0bf 9aa4 16be
000003b0: 02a5 bdbe fcb4 f7bd 3436 e03e 3c1f 193f
000003c0: fe9a 42bf fd4e 233e dd4e 08be 3259 afbe
000003d0: 94a8 83be e373 263f 3e69 d13e 3c1f 323f
000003e0: 2267 163f 8290 203e d231 e33e af49 52bf
000003f0: 9da2 5f3e 204d bc3e c74a 4e3e b516 4c3e
-0.9493707 0.4013404 0.12904441 0.3758589 0.16519465 0.9341675 -0.64143187 -1.2585118
-0.19364208 -0.61449194 -0.30317202 0.27495867 0.506804 0.6808101 -0.10659644 0.72672737
0.12077833 0.008434371 -0.11997915 1.248708 -0.92932594 -1.1794329 0.93003833 0.57427955
0.156339 -0.042987518 0.69845146 -1.3605406 -1.2732549 -0.040676232 0.22505067 0.24271688
0.49218205 -0.012323283 -1.4187379 0.014311573 -1.1873878 -0.2504791 -0.36417088 0.2207912
-1.0878989 0.26680863 0.084116146 -0.2617534 -1.2831469 0.7340512 -0.21807826 0.3863747
-0.29561612 -0.3088194 0.028058903 0.147393 0.39097887 -0.3170451 0.16245773 0.21288694
0.24691544 -0.6773188 0.5183665 0.11877386 -0.05269121 -0.06804918 -0.31782684 -0.33653122
-0.6701952 0.06099447 -1.7202617 -1.1463593 -1.0428898 -0.14530274 -0.70335674 0.011306346
0.3447472 0.40864548 -0.09900321 -0.16468358 0.9617076 0.3728023 -0.27994743 -0.76664096
0.17364918 0.46277988 -0.07376777 -0.44502598 -0.6509071 -0.55980414 -1.3136324 0.5512735
0.53869796 -0.23851785 0.29967654 0.26113537 0.16366343 -0.37213114 0.40086624 0.52454454
0.14278339 -0.47374225 -0.21866627 0.17970935 0.49584347 -1.6406944 -2.1124473 -0.5810263
-0.5113338 -2.3667 -3.0403836 -0.21128033 -0.36447468 0.19298868 0.723358 -0.8465034
1.4052294 0.5446941 -3.053507 0.21176033 -1.1031269 -0.98758894 -1.8247956 -1.1581604
1.0897614 -1.3193114 0.19013704 -1.3376077 -2.8824522 1.3697824 0.9726508 0.30553395
0.2826836 -0.96875054 0.53830534 -0.051061615 1.1117116 0.40664437 -0.43029112 0.26739216
0.14350155 4.2339497 0.7052258 -0.63127124 0.89844567 0.4408995 -1.1293303 0.30541733
-0.32560995 0.18353294 -0.41612467 0.22684821 -0.12219653 -0.9546409 -1.4763386 0.122125626
1.2555889 -2.0161788 -0.8512902 -0.32558975 1.3508013 -0.08164877 0.47469497 1.9115903
0.0068293894 -0.7364667 0.3993003 -1.0029148 -0.30093923 -0.40155303 0.13236594 0.23410587
0.3070035 0.80334276 -0.7303711 -0.59213775 0.7535333 -1.0999124 0.79282 -0.42542017
0.5432164 -1.3368216 -0.14323807 -0.56486744 1.1095078 0.14408931 0.11487891 -0.4739368
-4.2703567 -0.49763885 0.24834599 -1.6882399 -3.1548982 -0.6310442 -1.1518494 0.7100115
-1.0234618 0.656741 -1.030019 -0.59685975 -0.3885379 1.6065556 -0.6927145 -0.1509561
-1.2542297 0.80503213 0.66889906 0.46455115 0.59662724 0.5086895 0.0454693 -1.4046142
0.7697639 -1.1250921 -0.03272511 0.6839597 0.95648843 0.77306616 0.39462233 1.0561595
0.7405152 -0.1905441 0.86620724 0.15885626 -0.85621345 0.049966604 0.4136335 0.30012974
0.49548876 0.2891662 0.4161061 0.023203634 -0.5488115 0.21288413 0.5738408 -0.3791535
0.5977841 1.1411499 -1.3776906 -0.14711228 -0.37039953 -0.12095067 0.43791354 0.59813285
-0.7601775 0.159481 -0.13311334 -0.34247738 -0.25714552 0.6502058 0.40900606 0.6957891
0.5875112 0.15680125 0.44373947 -0.8214368 0.21839376 0.36777592 0.20145713 0.19930537

bias f4 [50]
00000000: 580f ee40 86da 2840 64af 0741 2b5f c740
00000010: 9e84 3b41 bdac d940 7b1b 0341 8d4a d140
00000020: fc7c 8a40 5394 3c41 7212 a140 c273 d740
00000030: 6084 1e41 e4ac db40 ac0d 4b40 aa81 ce40
00000040: f266 0741 06c0 5a40 62e6 2741 fc4d 4440
00000050: f9aa 0d41 26e0 2941 7b92 0641 ff63 dd40
00000060: 7584 2641 cc45 1741 0f7b 0741 dfe7 8440
00000070: e36a 1141 eec2 d140 3485 df40 2595 1f41
00000080: 8ebc 1941 5612 2241 2c88 3541 9e88 ab40
00000090: dc5a 3141 5e5b 2341 485c 1f41 32c5 cb40
000000a0: faf5 c340 338d 2041 2183 9740 9ab7 2f40
000000b0: 4d01 3641 75df 0441 eda8 3741 4bf5 1641
000000c0: 7573 c140 23ee eb40
7.439373 2.6383376 8.48032 6.230367 11.719877 6.802336 8.194209 6.5403504
4.327757 11.786212 5.0335016 6.7328806 9.907318 6.864855 3.1727095 6.453328
8.462633 3.4179702 10.493746 3.0672598 8.854241 10.617224 8.410762 6.9184566
10.407338 9.45454 8.467544 4.1533046 9.088595 6.555045 6.98501 9.973912
9.608534 10.129477 11.345745 5.360427 11.084682 10.209806 9.96003 6.3678217
6.1237764 10.034472 4.734757 2.7455812 11.375318 8.304555 11.478742 9.434886
6.045344 7.3728194

weight f4 [50]
00000000: 31fb 0142 a98a 0642 5e2b 0542 72d5 0442
00000010: 91f6 0242 d000 0442 e41e 0142 ed89 0442
00000020: 309a 0542 3acf 0142 b8b1 0542 2df8 0642
00000030: 7548 0242 fd59 0542 edae 0542 d9a5 0642
00000040: 4cff 0342 7486 0642 d992 0342 04ec 0642
00000050: ae29 0342 3acb 0242 62b9 0542 c2b6 0342
00000060: c13e 0342 2576 0342 4288 0442 c7e9 0442
00000070: 467a 0242 ecf9 0342 e93a 0342 5225 0542
00000080: 17b7 0342 2e53 0342 b6ef 0142 3111 0642
00000090: 139e 0342 e0ba 0342 b364 0442 0b49 0542
000000a0: d8f3 0542 46c8 0342 6375 0742 021f 0542
000000b0: 2b8d 0442 edd5 0142 1405 0442 1b3f 0342
000000c0: 538b 0442 1d26 0542
32.495304 33.63541 33.29235 33.208443 32.740788 33.000793 32.280167 33.134693
33.400574 32.45237 33.423553 33.74236 32.57076 33.33788 33.420826 33.66196
32.999313 33.6313 32.893406 33.730484 32.790703 32.698463 33.431038 32.928474
32.811283 32.865376 33.133064 33.2283 32.619408 32.994064 32.80753 33.286446
32.9288 32.83123 32.484093 33.51679 32.90437 32.932495 33.09834 33.32133
33.48813 32.94558 33.864635 33.28028 33.13786 32.45891 33.00496 32.811626
33.13606 33.28722

bias f4 [50]
00000000: d447 73c2 8616 7342 47ce 73c2 0e50 7342
00000010: 09f7 72c2 42a4 7342 f424 73c2 70b0 7342
00000020: 9816 7342 6afb 73c2 0515 7342 8eee 7342
00000030: c12f 73c2 0ea1 7342 027b 7342 b89b 7342
00000040: 89c0 73c2 d712 7442 e555 73c2 c96a 7342
00000050: f9ee 73c2 4e47 73c2 6dc4 73c2 0db5 7342
00000060: 5558 73c2 a2dd 73c2 65e2 73c2 1d2c 7342
00000070: 4e4e 73c2 9746 7342 8239 73c2 0d03 73c2
00000080: 37e3 73c2 74a4 73c2 c9da 72c2 f701 7442
00000090: 7be4 73c2 4632 73c2 fcf2 72c2 e921 7442
000000a0: fe9f 7342 ff51 73c2 8eef 7342 e416 7342
000000b0: ea33 73c2 8334 73c2 be8c 73c2 808b 73c2
000000c0: e384 7342 7162 7442
-60.820145 60.771996 -60.951443 60.82818 -60.741245 60.910408 -60.786087 60.922302
60.772064 -60.99552 60.770527 60.982964 -60.796635 60.90728 60.870125 60.90207
-60.938023 61.0184 -60.83388 60.854282 -60.98337 -60.819633 -60.941822 60.926807
-60.83626 -60.96644 -60.97109 60.79308 -60.82647 60.818935 -60.80616 -60.75298
-60.97189 -60.9106 -60.713657 61.00192 -60.973125 -60.799095 -60.73729 61.033115
60.906242 -60.830074 60.98394 60.772354 -60.800697 -60.80128 -60.887444 -60.88623
60.879772 61.096134

running_mean f4 [50]
00000000: aaba 0141 b3c5 903f d805 4541 f120 8940
00000010: fdbc 4741 1211 ad40 75ef 1541 4d39 aa40
00000020: 9bfa e93f a7ca 4c41 bc32 3040 2a3f c940
00000030: 2ce0 2941 cac4 ca40 44ea d73f 0ee8 a740
00000040: f38d 0841 fd63 d13f d7f7 3441 37f3 0040
00000050: b1a2 0c41 508d 3d41 1c64 0741 4dba c140
00000060: 1421 2f41 78d9 1741 42d6 0e41 0fa6 fa3f
00000070: 75fb 2a41 dae3 a540 9c51 0441 4e72 2241
00000080: d5b1 1a41 6b29 2441 4785 3a41 8042 6840
00000090: 314f 3441 900b 2341 7c0e 2841 82c9 8d40
000000a0: c392 a240 3c9e 2741 bb8a 1b40 5a8e 983f
000000b0: 1a75 3f41 6254 1841 f253 3f41 3496 1b41
000000c0: 139a 9040 1925 e240
8.108072 1.1310333 12.313927 4.285271 12.48364 5.408334 9.370961 5.3194947
1.8279604 12.799476 2.7530966 6.2889605 10.617229 6.336522 1.6868367 5.247077
8.534656 1.6358639 11.310508 2.0148447 8.78972 11.847 8.461941 6.053992
10.945576 9.490593 8.927309 1.9581927 10.686391 5.184064 8.269924 10.152906
9.668416 10.260112 11.657538 3.6290588 11.269334 10.190323 10.503536 4.430848
5.0804152 10.476131 2.4303424 1.1918442 11.966089 9.520601 11.957994 9.724171
4.518808 7.0670285

running_var f4 [50]
00000000: 99da 6c41 83eb 3941 1ca7 7542 28f5 fd41
00000010: 9001 7240 9a5d 4642 8cf8 a641 4bcd 2e42
00000020: d82c 7f41 5c2a d240 1d60 d141 a916 3142
00000030: 5ba7 0c41 8af3 ca41 776a 6e41 71da 5b42
00000040: a667 c840 a49f 6f41 e811 8e40 1fa1 ce41
00000050: 0351 df40 de1b c340 8b8d cc40 6946 1742
00000060: 5ab1 c440 07a1 da40 4263 6841 fdfa 8941
00000070: 5187 8642 c35b 5342 7890 4442 82ee 7640
00000080: f6ae b840 ac10 7d40 5ea4 8a40 ecc6 0342
00000090: 35ac 5740 9a0a 8040 d76b 8a40 26da 1d42
000000a0: 9d75 6342 8ad7 7840 525a d041 1784 1641
000000b0: aef6 5040 0959 d341 c3f1 4240 bc3f 7e40
000000c0: da0d 2842 51ab 0442
14.803369 11.619998 61.413193 31.744705 3.7813454 49.591408 20.87136 43.70048
15.948448 6.567671 26.17193 44.27213 8.790858 25.368916 14.900992 54.96332
6.2626524 14.976475 4.439686 25.828672 6.978639 6.0971518 6.392278 37.81876
6.1466494 6.8321567 14.524233 17.247553 67.26429 52.83961 49.141083 3.8583074
5.7713575 3.9541426 4.3325644 32.94426 3.3698857 4.001294 4.325664 39.463036
56.864857 3.8881555 26.044102 9.4072485 3.2650561 26.418474 3.046006 3.97264
42.013527 33.1673

weight f4 [1, 50]
00000000: d479 68c2 817d 6842 710e 68c2 460f 6842
00000010: 14c5 68c2 b6ec 6742 c187 68c2 f9a2 6742
00000020: 5775 6842 01cf 67c2 f680 6842 64ff 6742
00000030: 8f98 68c2 77ef 6742 1e1e 6842 2318 6842
00000040: c325 68c2 bcd4 6742 8b7b 68c2 0f6c 6842
00000050: eade 67c2 bd85 68c2 6106 68c2 c9bd 6742
00000060: af74 68c2 a0fa 67c2 5efd 67c2 615a 6842
00000070: 7c35 68c2 624f 6842 5498 68c2 9ea4 68c2
00000080: b31f 68c2 0d44 68c2 07a5 68c2 bfad 6742
00000090: 1b23 68c2 18a1 68c2 01f7 68c2 a998 6742
000000a0: 7ff4 6742 e062 68c2 57c4 6742 f26d 6842
000000b0: 1f7b 68c2 bd42 68c2 3d56 68c2 961f 68c2
000000c0: 461c 6842 a8b0 6742
-58.118973 58.122562 -58.014103 58.014915 -58.19246 57.981163 -58.132572 57.909153
58.11459 -57.952152 58.12594 57.999405 -58.148983 57.983852 58.02941 58.02357
-58.036877 57.95775 -58.120647 58.105526 -57.96769 -58.130604 -58.00623 57.935337
-58.11395 -57.99475 -57.99743 58.08826 -58.05223 58.077522 -58.148758 -58.16076
-58.030956 -58.066456 -58.16116 57.919674 -58.034283 -58.15732 -58.241215 57.899082
57.988766 -58.096558 57.94174 58.10737 -58.120235 -58.065174 -58.084217 -58.030846
58.02761 57.922516
